…
   MinCPUsNode=1 MinMemoryNode=3G MinTmpDiskNode=0
   Features=(null) DelayBoot=00:00:00
   OverSubscribe=OK Contiguous=0 Licenses=(null) Network=(null)
   Command=/mnt/qb/work/butz/svolz67/dev/models/waveModels/review.sh
   WorkDir=/mnt/qb/work/butz/svolz67/dev/models/waveModels
   StdErr=/mnt/qb/work/butz/svolz67/dev/models/waveModels/svolz.err
   StdIn=/dev/null
   StdOut=/mnt/qb/work/butz/svolz67/dev/models/waveModels/svolz.out
   Power=
   CpusPerTres=gpu:8
   TresPerNode=gpu:1
   MailUser=sebastien.volz@student.uni-tuebingen.de MailType=FAIL
   NtasksPerTRES:0

node:
slurm-bm-83.novalocal
RUN Script
Forecaster(
  (init): Conv2d(1, 12, kernel_size=(1, 1), stride=(1, 1))
  (encoder_layers): ModuleList(
    (block_0): depthWise(
      (transition): Conv2d(24, 24, kernel_size=(3, 3), stride=(1, 1), padding=same, groups=24)
      (conv): Conv2d(24, 48, kernel_size=(1, 1), stride=(1, 1), padding=same)
    )
    (block_1): depthWise(
      (transition): Conv2d(24, 24, kernel_size=(3, 3), stride=(1, 1), padding=same, groups=24)
      (conv): Conv2d(24, 48, kernel_size=(1, 1), stride=(1, 1), padding=same)
    )
  )
  (decoder_layers): ModuleList(
    (block_0): depthWise(
      (transition): Conv2d(12, 12, kernel_size=(3, 3), stride=(1, 1), padding=same, groups=12)
      (conv): Conv2d(12, 48, kernel_size=(1, 1), stride=(1, 1), padding=same)
    )
    (block_1): depthWise(
      (transition): Conv2d(24, 24, kernel_size=(3, 3), stride=(1, 1), padding=same, groups=24)
      (conv): Conv2d(24, 48, kernel_size=(1, 1), stride=(1, 1), padding=same)
    )
  )
  (read): Conv2d(12, 1, kernel_size=(1, 1), stride=(1, 1))
)
Total number of trainable parameters: 5101
… Forecaster(
  (init): Conv2d(1, 12, kernel_size=(1, 1), stride=(1, 1))
  (encoder_layers): ModuleList(
    (block_0): baseline(
      (conv): Conv2d(24, 48, kernel_size=(3, 3), stride=(1, 1), padding=same)
    )
    (block_1): baseline(
      (conv): Conv2d(24, 48, kernel_size=(3, 3), stride=(1, 1), padding=same)
    )
  )
  (decoder_layers): ModuleList(
    (block_0): baseline(
      (conv): Conv2d(12, 48, kernel_size=(3, 3), stride=(1, 1), padding=same)
    )
    (block_1): baseline(
      (conv): Conv2d(24, 48, kernel_size=(3, 3), stride=(1, 1), padding=same)
    )
  )
  (read): Conv2d(12, 1, kernel_size=(1, 1), stride=(1, 1))
)
Total number of trainable parameters: 36517
… Forecaster(
  (init): Conv2d(1, 12, kernel_size=(1, 1), stride=(1, 1))
  (encoder_layers): ModuleList(
    (block_0): lateral(
      (transition): Conv2d(24, 3, kernel_size=(3, 3), stride=(1, 1), padding=same)
      (conv): Conv2d(3, 48, kernel_size=(1, 1), stride=(1, 1), padding=same)
    )
    (block_1): lateral(
      (transition): Conv2d(24, 3, kernel_size=(3, 3), stride=(1, 1), padding=same)
      (conv): Conv2d(3, 48, kernel_size=(1, 1), stride=(1, 1), padding=same)
    )
  )
  (decoder_layers): ModuleList(
    (block_0): lateral(
      (transition): Conv2d(12, 3, kernel_size=(3, 3), stride=(1, 1), padding=same)
      (conv): Conv2d(3, 48, kernel_size=(1, 1), stride=(1, 1), padding=same)
    )
    (block_1): lateral(
      (transition): Conv2d(24, 3, kernel_size=(3, 3), stride=(1, 1), padding=same)
      (conv): Conv2d(3, 48, kernel_size=(1, 1), stride=(1, 1), padding=same)
    )
  )
  (read): Conv2d(12, 1, kernel_size=(1, 1), stride=(1, 1))
)
Total number of trainable parameters: 3085
… Forecaster(
  (init): Conv2d(1, 12, kernel_size=(1, 1), stride=(1, 1))
  (encoder_layers): ModuleList(
    (block_0): skipConnection(
      (transition): Conv2d(24, 3, kernel_size=(3, 3), stride=(1, 1), padding=same)
      (conv): Conv2d(15, 48, kernel_size=(1, 1), stride=(1, 1), padding=same)
    )
    (block_1): skipConnection(
      (transition): Conv2d(24, 3, kernel_size=(3, 3), stride=(1, 1), padding=same)
      (conv): Conv2d(15, 48, kernel_size=(1, 1), stride=(1, 1), padding=same)
    )
  )
  (decoder_layers): ModuleList(
    (block_0): skipConnection(
      (transition): Conv2d(12, 3, kernel_size=(3, 3), stride=(1, 1), padding=same)
      (conv): Conv2d(15, 48, kernel_size=(1, 1), stride=(1, 1), padding=same)
    )
    (block_1): skipConnection(
      (transition): Conv2d(24, 3, kernel_size=(3, 3), stride=(1, 1), padding=same)
      (conv): Conv2d(15, 48, kernel_size=(1, 1), stride=(1, 1), padding=same)
    )
  )
  (read): Conv2d(12, 1, kernel_size=(1, 1), stride=(1, 1))
)
Total number of trainable parameters: 5389
… Forecaster(
  (init): Conv2d(1, 12, kernel_size=(1, 1), stride=(1, 1))
  (encoder_layers): ModuleList(
    (block_0): twoLayer(
      (transition): Conv2d(24, 3, kernel_size=(3, 3), stride=(1, 1), padding=same)
      (transition_deep): Conv2d(3, 3, kernel_size=(3, 3), stride=(1, 1), padding=same)
      (conv): Conv2d(3, 48, kernel_size=(1, 1), stride=(1, 1), padding=same)
    )
    (block_1): twoLayer(
      (transition): Conv2d(24, 3, kernel_size=(3, 3), stride=(1, 1), padding=same)
      (transition_deep): Conv2d(3, 3, kernel_size=(3, 3), stride=(1, 1), padding=same)
      (conv): Conv2d(3, 48, kernel_size=(1, 1), stride=(1, 1), padding=same)
    )
  )
  (decoder_layers): ModuleList(
    (block_0): twoLayer(
      (transition): Conv2d(12, 3, kernel_size=(3, 3), stride=(1, 1), padding=same)
      (transition_deep): Conv2d(3, 3, kernel_size=(3, 3), stride=(1, 1), padding=same)
      (conv): Conv2d(3, 48, kernel_size=(1, 1), stride=(1, 1), padding=same)
    )
    (block_1): twoLayer(
      (transition): Conv2d(24, 3, kernel_size=(3, 3), stride=(1, 1), padding=same)
      (transition_deep): Conv2d(3, 3, kernel_size=(3, 3), stride=(1, 1), padding=same)
      (conv): Conv2d(3, 48, kernel_size=(1, 1), stride=(1, 1), padding=same)
    )
  )
  (read): Conv2d(12, 1, kernel_size=(1, 1), stride=(1, 1))
)
Total number of trainable parameters: 3421
… 